sin_predictor_int8.tflite (tflite, 7760 bytes, 3 tensors)

sequential/batch_normalization_1/batchnorm/mul_1;sequential/batch_normalization_1/batchnorm/add_1;sequential/dense_2/MatMul;sequential/dense_2/BiasAdd i1 [1, 64] scale=6.0517632e-05 zero_point=0
0	0x00	0.0
1	0xd8	-0.0024207053
2	0xe1	-0.0018760466
3	0xf5	-0.00066569395
4	0x0c	0.0007262116
5	0x0b	0.00066569395
6	0xe8	-0.0014524232
7	0x06	0.0003631058
8	0x00	0.0
9	0x11	0.0010287997
10	0xf9	-0.00042362342
11	0x22	0.0020575994
12	0xc4	-0.003631058
13	0xf7	-0.0005446587
14	0xeb	-0.0012708702
15	0x7f	0.007685739
16	0x1f	0.0018760466
17	0x01	6.0517632e-05
18	0x03	0.0001815529
19	0xff	-6.0517632e-05
20	0x0d	0.0007867292
21	0x32	0.0030258815
22	0x00	0.0
23	0x00	0.0
24	0x01	6.0517632e-05
25	0x32	0.0030258815
26	0x00	0.0
27	0x2d	0.0027232934
28	0x2d	0.0027232934
29	0x07	0.00042362342
30	0x02	0.000121035264
31	0xfe	-0.000121035264
32	0xf1	-0.0009077645
33	0x1c	0.0016944937
34	0x22	0.0020575994
35	0x2e	0.0027838112
36	0x2a	0.0025417404
37	0x39	0.003449505
38	0xe4	-0.0016944937
39	0xba	-0.0042362344
40	0x01	6.0517632e-05
41	0x04	0.00024207053
42	0x1a	0.0015734584
43	0x0e	0.00084724685
44	0x0e	0.00084724685
45	0x30	0.0029048463
46	0x21	0.0019970818
47	0xeb	-0.0012708702
48	0xa3	-0.0056281397
49	0x00	0.0
50	0x08	0.00048414106
51	0x13	0.0011498351
52	0x00	0.0
53	0x0a	0.0006051763
54	0xf3	-0.0007867292
55	0x2d	0.0027232934
56	0x18	0.0014524232
57	0x1d	0.0017550113
58	0xfb	-0.00030258816
59	0x48	0.0043572695
60	0xf9	-0.00042362342
61	0x8e	-0.00689901
62	0xbd	-0.0040546814
63	0x37	0.0033284698

sequential/batch_normalization/batchnorm/mul_1;sequential/batch_normalization/batchnorm/add_1;sequential/dense_1/MatMul;sequential/dense_1/Relu;sequential/dense_1/BiasAdd i1 [64, 64] scale=0.76831573 zero_point=0
0	0xff	-0.76831573
1	0xfe	-1.5366315
2	0x00	0.0
3	0x00	0.0
4	0xfd	-2.3049471
5	0x00	0.0
6	0xff	-0.76831573
7	0x00	0.0
8	0xff	-0.76831573
9	0x01	0.76831573
10	0x02	1.5366315
11	0x00	0.0
12	0x00	0.0
13	0x01	0.76831573
14	0x00	0.0
15	0x01	0.76831573
16	0x00	0.0
17	0xff	-0.76831573
18	0x00	0.0
19	0x01	0.76831573
20	0x00	0.0
21	0x00	0.0
22	0x01	0.76831573
23	0xff	-0.76831573
24	0x01	0.76831573
25	0x00	0.0
26	0x00	0.0
27	0xfe	-1.5366315
28	0xfc	-3.073263
29	0xff	-0.76831573
30	0x00	0.0
31	0x00	0.0
32	0xff	-0.76831573
33	0xff	-0.76831573
34	0x00	0.0
35	0x01	0.76831573
36	0x00	0.0
37	0xff	-0.76831573
38	0x00	0.0
39	0x00	0.0
40	0xfd	-2.3049471
41	0x01	0.76831573
42	0x00	0.0
43	0xff	-0.76831573
44	0x00	0.0
45	0x00	0.0
46	0xff	-0.76831573
47	0x05	3.8415787
48	0x00	0.0
49	0x00	0.0
50	0x00	0.0
51	0x00	0.0
52	0x01	0.76831573
53	0x00	0.0
54	0x00	0.0
55	0x00	0.0
56	0xff	-0.76831573
57	0x01	0.76831573
58	0x01	0.76831573
59	0x01	0.76831573
60	0x00	0.0
61	0x00	0.0
62	0x00	0.0
63	0x00	0.0
64	0xfe	-1.5366315
65	0x01	0.76831573
66	0x01	0.76831573
67	0x00	0.0
68	0xfb	-3.8415787
69	0xff	-0.76831573
70	0x00	0.0
71	0xf9	-5.37821
72	0xff	-0.76831573
73	0x00	0.0
74	0xff	-0.76831573
75	0xff	-0.76831573
76	0x02	1.5366315
77	0x01	0.76831573
78	0x00	0.0
79	0xff	-0.76831573
80	0xfe	-1.5366315
81	0x0b	8.451473
82	0x00	0.0
83	0xff	-0.76831573
84	0x00	0.0
85	0xff	-0.76831573
86	0xfa	-4.6098943
87	0x02	1.5366315
88	0xd9	-29.964314
89	0xfb	-3.8415787
90	0x03	2.3049471
91	0x04	3.073263
92	0x05	3.8415787
93	0xff	-0.76831573
94	0xfe	-1.5366315
95	0x00	0.0
96	0xfe	-1.5366315
97	0xff	-0.76831573
98	0x00	0.0
99	0xfe	-1.5366315
100	0x00	0.0
101	0x00	0.0
102	0xf2	-10.75642
103	0x00	0.0
104	0x18	18.439577
105	0xfb	-3.8415787
106	0x01	0.76831573
107	0x01	0.76831573
108	0x00	0.0
109	0x00	0.0
110	0xff	-0.76831573
111	0xf5	-8.451473
112	0x01	0.76831573
113	0x00	0.0
114	0x00	0.0
115	0x00	0.0
116	0xfd	-2.3049471
117	0xff	-0.76831573
118	0xfe	-1.5366315
119	0x00	0.0
120	0x09	6.9148417
121	0x02	1.5366315
122	0xff	-0.76831573
123	0xff	-0.76831573
124	0x00	0.0
125	0xf9	-5.37821
126	0x00	0.0
127	0x04	3.073263
128	0xfe	-1.5366315
129	0x00	0.0
130	0x02	1.5366315
131	0x00	0.0
132	0xff	-0.76831573
133	0x02	1.5366315
134	0x00	0.0
135	0xff	-0.76831573
136	0xfe	-1.5366315
137	0x00	0.0
138	0x02	1.5366315
139	0x01	0.76831573
140	0x01	0.76831573
141	0x02	1.5366315
142	0x00	0.0
143	0x01	0.76831573
144	0x02	1.5366315
145	0x01	0.76831573
146	0x00	0.0
147	0xff	-0.76831573
148	0x02	1.5366315
149	0x00	0.0
150	0x02	1.5366315
151	0xff	-0.76831573
152	0xec	-15.366315
153	0xff	-0.76831573
154	0x00	0.0
155	0xff	-0.76831573
156	0x00	0.0
157	0xff	-0.76831573
158	0x00	0.0
159	0x02	1.5366315
160	0x02	1.5366315
161	0x00	0.0
162	0x01	0.76831573
163	0x00	0.0
164	0x00	0.0
165	0xff	-0.76831573
166	0x00	0.0
167	0x00	0.0
168	0x04	3.073263
169	0x02	1.5366315
170	0x00	0.0
171	0x00	0.0
172	0xff	-0.76831573
173	0x01	0.76831573
174	0x00	0.0
175	0x01	0.76831573
176	0x01	0.76831573
177	0x01	0.76831573
178	0x00	0.0
179	0x00	0.0
180	0x00	0.0
181	0x01	0.76831573
182	0xff	-0.76831573
183	0x00	0.0
184	0x00	0.0
185	0x02	1.5366315
186	0x03	2.3049471
187	0xff	-0.76831573
188	0x00	0.0
189	0x01	0.76831573
190	0x00	0.0
191	0x01	0.76831573
192	0x00	0.0
193	0x01	0.76831573
194	0x01	0.76831573
195	0x00	0.0
196	0x00	0.0
197	0x00	0.0
198	0x00	0.0
199	0xff	-0.76831573
200	0x00	0.0
201	0x00	0.0
202	0xff	-0.76831573
203	0xff	-0.76831573
204	0x00	0.0
205	0x01	0.76831573
206	0x00	0.0
207	0x00	0.0
208	0x00	0.0
209	0x02	1.5366315
210	0x00	0.0
211	0x00	0.0
212	0x00	0.0
213	0xff	-0.76831573
214	0xfd	-2.3049471
215	0x01	0.76831573
216	0xf3	-9.988105
217	0xfd	-2.3049471
218	0x01	0.76831573
219	0x01	0.76831573
220	0x02	1.5366315
221	0xff	-0.76831573
222	0x00	0.0
223	0x00	0.0
224	0x02	1.5366315
225	0xff	-0.76831573
226	0x00	0.0
227	0x00	0.0
228	0xff	-0.76831573
229	0x00	0.0
230	0xfe	-1.5366315
231	0x00	0.0
232	0x10	12.293052
233	0xfe	-1.5366315
234	0x00	0.0
235	0x01	0.76831573
236	0xff	-0.76831573
237	0x00	0.0
238	0x00	0.0
239	0xfb	-3.8415787
240	0x00	0.0
241	0x00	0.0
242	0x00	0.0
243	0x01	0.76831573
244	0xff	-0.76831573
245	0x00	0.0
246	0xff	-0.76831573
247	0x00	0.0
248	0x00	0.0
249	0x00	0.0
250	0x01	0.76831573
251	0xff	-0.76831573
252	0x00	0.0
253	0x00	0.0
254	0x00	0.0
255	0x01	0.76831573

sequential/dense/MatMul i1 [64, 7] scale=0.027943151 zero_point=0
0	0xf0	-0.44709042
1	0xfb	-0.13971576
2	0x12	0.5029767
3	0x1d	0.8103514
4	0xfb	-0.13971576
5	0xdf	-0.92212397
6	0x4d	2.1516225
7	0xfc	-0.111772604
8	0xf5	-0.30737466
9	0xf7	-0.25148836
10	0xfd	-0.083829455
11	0xf9	-0.19560206
12	0xf9	-0.19560206
13	0xe2	-0.8382945
14	0xf9	-0.19560206
15	0xe2	-0.8382945
16	0xf4	-0.33531782
17	0xf4	-0.33531782
18	0xf1	-0.41914725
19	0xec	-0.55886304
20	0xb0	-2.2354522
21	0xe1	-0.8662377
22	0xfa	-0.16765891
23	0x17	0.64269245
24	0x18	0.67063564
25	0x0e	0.39120412
26	0xf7	-0.25148836
27	0xc2	-1.7324754
28	0x03	0.083829455
29	0x01	0.027943151
30	0xfb	-0.13971576
31	0x07	0.19560206
32	0x02	0.055886302
33	0xe1	-0.8662377
34	0x21	0.92212397
35	0xf2	-0.39120412
36	0x28	1.1177261
37	0x2d	1.2574418
38	0x0c	0.33531782
39	0xef	-0.47503358
40	0xb3	-2.1516225
41	0xd4	-1.2294986
42	0xff	-0.027943151
43	0x00	0.0
44	0xe9	-0.64269245
45	0xe3	-0.8103514
46	0xf5	-0.30737466
47	0xf3	-0.36326095
48	0xe4	-0.78240824
49	0x04	0.111772604
50	0x23	0.9780103
51	0xf3	-0.36326095
52	0xe2	-0.8382945
53	0xf8	-0.22354521
54	0xe6	-0.7265219
55	0x55	2.3751678
56	0x1a	0.7265219
57	0xff	-0.027943151
58	0xe9	-0.64269245
59	0xff	-0.027943151
60	0xf9	-0.19560206
61	0xf7	-0.25148836
62	0x30	1.3412713
63	0x06	0.16765891
64	0x06	0.16765891
65	0x16	0.6147493
66	0x05	0.13971576
67	0x03	0.083829455
68	0x10	0.44709042
69	0x18	0.67063564
70	0xc5	-1.6486459
71	0xfc	-0.111772604
72	0x3c	1.676589
73	0x06	0.16765891
74	0xcf	-1.3692144
75	0xd3	-1.2574418
76	0x47	1.9839637
77	0xdd	-0.9780103
78	0x24	1.0059534
79	0x2b	1.2015555
80	0x11	0.47503358
81	0xf6	-0.27943152
82	0xd8	-1.1177261
83	0xca	-1.5089302
84	0xd4	-1.2294986
85	0xe9	-0.64269245
86	0x16	0.6147493
87	0x32	1.3971575
88	0x22	0.95006716
89	0x01	0.027943151
90	0x81	-3.5487802
91	0x15	0.5868062
92	0x22	0.95006716
93	0x0c	0.33531782
94	0x14	0.55886304
95	0x21	0.92212397
96	0x0e	0.39120412
97	0xf5	-0.30737466
98	0x0b	0.30737466
99	0x00	0.0
100	0x16	0.6147493
101	0x18	0.67063564
102	0xfb	-0.13971576
103	0x11	0.47503358
104	0x27	1.0897828
105	0xfd	-0.083829455
106	0x1f	0.8662377
107	0x0f	0.41914725
108	0x06	0.16765891
109	0x02	0.055886302
110	0xf7	-0.25148836
111	0x06	0.16765891
112	0xc1	-1.7604185
113	0xf3	-0.36326095
114	0x3f	1.7604185
115	0x10	0.44709042
116	0xc6	-1.6207027
117	0xda	-1.0618397
118	0x3a	1.6207027
119	0x0c	0.33531782
120	0xe6	-0.7265219
121	0xf7	-0.25148836
122	0x10	0.44709042
123	0x0a	0.27943152
124	0x2c	1.2294986
125	0xb1	-2.207509
126	0xdc	-1.0059534
127	0xeb	-0.5868062
128	0xed	-0.53091985
129	0xf1	-0.41914725
130	0xda	-1.0618397
131	0xff	-0.027943151
132	0xff	-0.027943151
133	0xc5	-1.6486459
134	0xe6	-0.7265219
135	0xe9	-0.64269245
136	0xf0	-0.44709042
137	0xe5	-0.7544651
138	0xbe	-1.8442479
139	0x3c	1.676589
140	0xa4	-2.5707698
141	0x22	0.95006716
142	0x3b	1.6486459
143	0x16	0.6147493
144	0x0a	0.27943152
145	0xf6	-0.27943152
146	0x89	-3.325235
147	0xa5	-2.5428267
148	0x00	0.0
149	0x26	1.0618397
150	0x27	1.0897828
151	0x35	1.480987
152	0xf0	-0.44709042
153	0xb4	-2.1236794
154	0xcb	-1.480987
155	0x19	0.6985788
156	0x1c	0.78240824
157	0x0e	0.39120412
158	0xe2	-0.8382945
159	0xcd	-1.4251007
160	0x17	0.64269245
161	0x2a	1.1736124
162	0xfd	-0.083829455
163	0x0a	0.27943152
164	0x0b	0.30737466
165	0x20	0.89418083
166	0x1b	0.7544651
167	0x0f	0.41914725
168	0xfd	-0.083829455
169	0x12	0.5029767
170	0xdf	-0.92212397
171	0x0d	0.36326095
172	0x21	0.92212397
173	0xcb	-1.480987
174	0x1d	0.8103514
175	0xb1	-2.207509
176	0x36	1.5089302
177	0x36	1.5089302
178	0xf3	-0.36326095
179	0xbf	-1.8163048
180	0xda	-1.0618397
181	0x63	2.766372
182	0x22	0.95006716
183	0xf3	-0.36326095
184	0x04	0.111772604
185	0x08	0.22354521
186	0x0b	0.30737466
187	0x1a	0.7265219
188	0xf8	-0.22354521
189	0x23	0.9780103
190	0xf9	-0.19560206
191	0xea	-0.6147493
192	0xfc	-0.111772604
193	0x17	0.64269245
194	0x18	0.67063564
195	0xe0	-0.89418083
196	0x10	0.44709042
197	0xf5	-0.30737466
198	0xf5	-0.30737466
199	0xf4	-0.33531782
200	0x0d	0.36326095
201	0x2f	1.3133281
202	0xc8	-1.5648165
203	0xde	-0.95006716
204	0xd7	-1.1456692
205	0xff	-0.027943151
206	0xef	-0.47503358
207	0xd0	-1.3412713
208	0xe5	-0.7544651
209	0x19	0.6985788
210	0x0f	0.41914725
211	0x1f	0.8662377
212	0x00	0.0
213	0xfe	-0.055886302
214	0xff	-0.027943151
215	0xc4	-1.676589
216	0xff	-0.027943151
217	0xe7	-0.6985788
218	0xef	-0.47503358
219	0x01	0.027943151
220	0xf7	-0.25148836
221	0xf2	-0.39120412
222	0xe4	-0.78240824
223	0xc1	-1.7604185
224	0x03	0.083829455
225	0xfd	-0.083829455
226	0x06	0.16765891
227	0xfa	-0.16765891
228	0x07	0.19560206
229	0xff	-0.027943151
230	0x08	0.22354521
231	0x97	-2.9340308
232	0x33	1.4251007
233	0x2c	1.2294986
234	0x15	0.5868062
235	0x04	0.111772604
236	0xe3	-0.8103514
237	0xc9	-1.5368733
238	0xf0	-0.44709042
239	0x21	0.92212397
240	0x2e	1.2853849
241	0x0f	0.41914725
242	0xf4	-0.33531782
243	0xd5	-1.2015555
244	0xc1	-1.7604185
245	0xf3	-0.36326095
246	0x24	1.0059534
247	0x0a	0.27943152
248	0x03	0.083829455
249	0xe8	-0.67063564
250	0xdc	-1.0059534
251	0x11	0.47503358
252	0xd1	-1.3133281
253	0x1a	0.7265219
254	0x01	0.027943151
255	0xfe	-0.055886302
